vanila_dqn_checkpoint.pth (torch_old, 19644 bytes, 6 tensors)

layers.0.weight f4 [64, 37]
0	0x3c807d8c	0.015684865
1	0x3e5dec70	0.21672225
2	0xbe2f2861	-0.17105247
3	0xbe102c91	-0.140795
4	0x3e360a18	0.17777288
5	0x3c8c1c2c	0.017103277
6	0xbd9ba0bf	-0.07599019
7	0x3e8dd622	0.27702433
8	0x3d1b7640	0.03795457
9	0xbe3ff9a6	-0.18747577
10	0xbdaabf9e	-0.08337329
11	0xbd3115fa	-0.04323385
12	0x3abee401	0.00145638
13	0x3bf10136	0.0073548807
14	0x3d5ba0f4	0.053620294
15	0x3e49b832	0.19699171
16	0xbca9dd39	-0.02073537
17	0x3d1f2f24	0.038863316
18	0xbe9a8cd8	-0.3018558
19	0xbef7db44	-0.48409474
20	0x3d97d6e9	0.07414038
21	0x3e64954a	0.22322574
22	0xbdb5455d	-0.088511206
23	0x3d868cf2	0.06569852
24	0x3e4a9e3e	0.19786927
25	0xbdffe70f	-0.12495243
26	0x3e3ce4da	0.18446675
27	0x3de7cf09	0.11318786
28	0xbe2d5c9b	-0.16929857
29	0x3c940dc0	0.018072963
30	0xbdd4371c	-0.10362074
31	0x3dcae24a	0.099064425
32	0x3d68834e	0.056765847
33	0xbd265670	-0.040609777
34	0x3d0e2602	0.034704216
35	0xbbb51a69	-0.00552683
36	0xbd8a23dc	-0.06745121
37	0x3e4f120e	0.20221731
38	0x3db96c65	0.09053878
39	0x3dd915dc	0.105998725
40	0xbd6d20db	-0.05789266
41	0xbe901502	-0.28141028
42	0x3d991b62	0.07475926
43	0xbd0d1c93	-0.03445108
44	0xbe825800	-0.25457764
45	0x3d2dd272	0.042437024
46	0x3d853154	0.06503549
47	0x3d336aa5	0.043802876
48	0xbd074c42	-0.03303171
49	0x3ccf6f6e	0.025321689
50	0x3e256218	0.16150701
51	0x3e800290	0.25001955
52	0x3e561e27	0.2090994
53	0x3d4be904	0.049782768
54	0xbc8b7524	-0.01702363
55	0xbdaab75b	-0.083357535
56	0xbd2727ca	-0.04080943
57	0x3ceae475	0.02867339
58	0xbde2df25	-0.11077718
59	0xbd961d97	-0.073298626
60	0xbe7517d1	-0.23934866
61	0x3cdea9fd	0.027180666
62	0xbd1ea756	-0.038733803
63	0x3ca4bfb1	0.020110937
64	0x3e18ac57	0.14909492
65	0xbddd18ce	-0.10795747
66	0x3d296c03	0.041362774
67	0x3e3ac383	0.18238644
68	0x3e3c56e0	0.18392515
69	0xbbed0a6c	-0.0072339084
70	0xbe4eab4e	-0.20182535
71	0xbe44a989	-0.19205298
72	0x3dbe72bf	0.0929923
73	0x3dfb908e	0.12283431
74	0xbbec036c	-0.0072025564
75	0x3e2b947b	0.1675586
76	0x3e16f52b	0.14741962
77	0x3c4df281	0.0125700245
78	0xbee4b4fb	-0.44669327
79	0xbee90171	-0.45508912
80	0xbdfadfed	-0.12249742
81	0x3ee1f10f	0.44129226
82	0xbe102989	-0.14078344
83	0xbf327ca7	-0.69721454
84	0x3e36239a	0.17787018
85	0xbe0f89ff	-0.14017485
86	0x3d78bf80	0.060729504
87	0xbe81a44f	-0.2532067
88	0x3dcadb42	0.09905101
89	0xbda24017	-0.079223804
90	0x3b514e6c	0.0031937612
91	0x3e8b927e	0.27260202
92	0xbe592db8	-0.21208847
93	0xbe41740b	-0.18891923
94	0x3be1afa8	0.006887395
95	0xbd51160f	-0.051046427
96	0x3d815566	0.063151166
97	0xbe6de5ea	-0.23232237
98	0xbc8e37a6	-0.01736052
99	0x3c76826c	0.015045743
100	0x3d3d0da1	0.046155576
101	0x3e80a6b3	0.2512718
102	0xbe81a953	-0.25324497
103	0xbe93016c	-0.28712022
104	0xbe08a360	-0.13343573
105	0x3d0f5e5f	0.03500211
106	0x3d084d6d	0.033276964
107	0xbef5abfe	-0.47982782
108	0xbeb0b3fc	-0.34512317
109	0x3c241af9	0.010016196
110	0x3c858597	0.016299052
111	0x3e23a074	0.15979177
112	0xbea6b63a	-0.32560903
113	0x3e5b7c0a	0.21434036
114	0xbe132be6	-0.14372215
115	0xbf004989	-0.50112206
116	0x3d67f46a	0.056629576
117	0xbecfe974	-0.40607798
118	0xbd592679	-0.053015206
119	0x3e3abb86	0.18235597
120	0xbf06638a	-0.52495635
121	0x3ce87121	0.028374257
122	0x3c350595	0.011048694
123	0x3d030fbf	0.03199744
124	0xbe5cc7fe	-0.21560666
125	0xbe9bfeb6	-0.30467767
126	0xbc18a736	-0.00931721
127	0xbe8296cd	-0.25505677
128	0xbbfadae2	-0.0076554874
129	0xbde8b801	-0.11363221
130	0xbd60feff	-0.054930683
131	0x3bfec2e4	0.0077746976
132	0xbe82bec9	-0.25536183
133	0x3e3756af	0.17904161
134	0x3cc03e1e	0.02346712
135	0x3d02b76b	0.031913202
136	0xbd877da5	-0.06615762
137	0xbce42ac1	-0.027852418
138	0xbd868a31	-0.06569327
139	0x3e9aaa3e	0.3020801
140	0x3e958958	0.29206347
141	0x3e38290b	0.17984407
142	0x3e737266	0.23774108
143	0xbe873e86	-0.2641489
144	0xbdf5adff	-0.11996078
145	0xbed1772a	-0.40911227
146	0x3d9f9da7	0.07793742
147	0xbc22bc06	-0.009932524
148	0x3cb66829	0.022266464
149	0xbe9867ee	-0.29766792
150	0xbe6c83ff	-0.23097228
151	0xbe816ccb	-0.25278315
152	0xbe31a6db	-0.17348807
153	0x3d91c1f0	0.07117069
154	0x3de8fafc	0.113759965
155	0xbe8fa813	-0.28057918
156	0x3df5c988	0.1200133
157	0xbdab29c3	-0.08357575
158	0xbd9a7131	-0.07541121
159	0xbb28094a	-0.0025640302
160	0xbdb8d8ef	-0.09025752
161	0xbd75d78f	-0.060020026
162	0xbd155c80	-0.036465168
163	0xbd488f98	-0.048965067
164	0xbe199109	-0.14996733
165	0xbd9d9416	-0.07694261
166	0xbe18bf5e	-0.14916751
167	0xbe31736b	-0.17329185
168	0xbdc6e32b	-0.097112976
169	0xbe32884c	-0.17434806
170	0x3e440b55	0.19144948
171	0xbd2c5a2c	-0.042078182
172	0x3e526cb4	0.2054928
173	0x3da2b374	0.07944384
174	0xbcca0825	-0.024662087
175	0x3d23acad	0.0399596
176	0xbceab287	-0.028649582
177	0x3ddf7160	0.109102964
178	0x3e628723	0.22121863
179	0xbed4f5c0	-0.41593742
180	0xbd262519	-0.040562723
181	0x3d98c9b7	0.07460349
182	0x3ee6d36e	0.45083183
183	0xbd691d11	-0.056912486
184	0x3c56ed3e	0.013118086
185	0x3b719574	0.0036862763
186	0xbd9bf2c0	-0.0761466
187	0x3d7f9ad6	0.062403522
188	0x3c7b00c8	0.0153200105
189	0xbc71da6b	-0.014761548
190	0x3e723256	0.23652014
191	0xbddfaedd	-0.109220244
192	0xbb85eb0f	-0.004086859
193	0xbeb48973	-0.35261115
194	0xbfab7a65	-1.3396727
195	0xbdafb43c	-0.08579299
196	0xbd2d02cc	-0.042238995
197	0x3d46f4ba	0.048573233
198	0xbe095374	-0.13410741
199	0x3e4dfa75	0.20115073
200	0xbe0b7e95	-0.13622506
201	0x3ddeb050	0.10873473
202	0x3d6ccc75	0.057812173
203	0xbc644943	-0.013933483
204	0xbe91082d	-0.2832655
205	0x3ce8a638	0.028399572
206	0xbca6aea1	-0.020346941
207	0x3df52049	0.119690485
208	0x3e208fa1	0.1567979
209	0x3cabbe4e	0.020964768
210	0x3c9cd49d	0.01914435
211	0x3dddc53c	0.10828635
212	0x3d0638dc	0.03276907
213	0xbe1a92d2	-0.1509507
214	0xbe191c52	-0.1495221
215	0x3d252ddd	0.04032694
216	0xbe540531	-0.20705105
217	0x3d859d17	0.06524103
218	0x3d8b5ba7	0.06804591
219	0xbe2bf5c5	-0.16792972
220	0xbcdfb998	-0.027310178
221	0x3d0de555	0.034642536
222	0x3e641455	0.22273381
223	0xbd8cf1ba	-0.06882043
224	0xbe406ece	-0.18792269
225	0xbce8ab5a	-0.02840202
226	0xbf2037bb	-0.6258504
227	0xbdefca2e	-0.117084846
228	0x3d8a4529	0.067514725
229	0xbcb54675	-0.022128323
230	0xbdb9279a	-0.090407565
231	0x3e4e1791	0.20126177
232	0x3daa1938	0.08305591
233	0x3d8fe7d7	0.07026642
234	0x3d9bfe3c	0.07616851
235	0x3e4f71a3	0.20258193
236	0x3dd78de0	0.105251074
237	0xbe102826	-0.14077815
238	0x3c3c8e5c	0.0115085505
239	0x3d48437d	0.048892487
240	0x3d759756	0.05995878
241	0x3ed70783	0.41997918
242	0xbe5ad7d3	-0.21371393
243	0x3e1ad6c6	0.15120992
244	0x3cf4592f	0.029827682
245	0xbd818587	-0.063242964
246	0x3eba49d9	0.36384466
247	0xbd877ab5	-0.066152014
248	0xbcdc6100	-0.026901722
249	0xbdbdf1a4	-0.09274605
250	0xbe809cc5	-0.25119606
251	0xbdd77c30	-0.10521734
252	0x3e5a7999	0.21335448
253	0xbd90ded4	-0.07073751
254	0xbe771d8e	-0.24132368
255	0xbdc185b3	-0.09449329

layers.0.bias f4 [64]
0	0x3df8d0b1	0.1214918
1	0x3c8f53b6	0.017495971
2	0xbd970aab	-0.07375082
3	0xbc85041a	-0.016237307
4	0x3df7a279	0.12091536
5	0xbac8e640	-0.0015327409
6	0xbdaab204	-0.08334735
7	0x3d41d641	0.04732347
8	0x3d2dee56	0.042463623
9	0xbe64cd64	-0.22343975
10	0x3ddb323f	0.10702943
11	0x3dd1c160	0.102419615
12	0x3e292e91	0.1652167
13	0x3e3c4972	0.18387392
14	0xbcd5ad29	-0.026083546
15	0xbd7c561f	-0.06160557
16	0xbc81587d	-0.015789265
17	0xbc25d6ce	-0.010122014
18	0x3cbc16f7	0.02296017
19	0xbe00e9ee	-0.12589237
20	0xbd8609f2	-0.06544866
21	0x3db7ec8e	0.08980666
22	0xbc80d535	-0.015726665
23	0xbd9fcb5b	-0.07802459
24	0xbe852ebd	-0.2601222
25	0x3e6e6576	0.23280892
26	0x3c8ac2f1	0.016938658
27	0xbc479e06	-0.012183672
28	0x3e1bac34	0.15202409
29	0x3e02e4b8	0.12782562
30	0xbd867330	-0.06564939
31	0xbdfe7300	-0.12424278
32	0x3e1dd8cd	0.15414734
33	0xbd29aaf3	-0.041422796
34	0xbdc0c284	-0.09412101
35	0x3de67795	0.11253277
36	0xbd49834b	-0.049197476
37	0x3d61787b	0.05504654
38	0xbc2c03e7	-0.010498977
39	0xbe20dc92	-0.15709141
40	0xbd4d3873	-0.050102662
41	0x3d2f0123	0.042725693
42	0xbe35cce1	-0.17753936
43	0x3e660c69	0.22465672
44	0xbca21d13	-0.019789254
45	0xbd1760df	-0.036957618
46	0x3dbc67a7	0.091994576
47	0xbe27e282	-0.16395
48	0xbdb4e12e	-0.08832012
49	0x3d29b75a	0.041434623
50	0xbe273852	-0.16330078
51	0x3cae206c	0.021255694
52	0x3d6cdd07	0.057827976
53	0x3e1a8f92	0.1509383
54	0xbe13a128	-0.14416945
55	0xbd4e0df1	-0.050306264
56	0x3dd0b098	0.101899326
57	0xbc87f15d	-0.016594583
58	0xbe173362	-0.14765695
59	0xbe17bf4e	-0.1481907
60	0x3c7cb824	0.015424762
61	0x3cccd324	0.025003023
62	0x3d631451	0.055439297
63	0x3dc54c0c	0.096336454

layers.1.weight f4 [32, 64]
0	0x3d1f0c93	0.03883035
1	0x3e11489c	0.14187855
2	0x3dd0a76b	0.101881824
3	0x3cdcfe4b	0.026976725
4	0x3e56d68f	0.20980285
5	0x3d5d31f6	0.054002725
6	0x3e6da757	0.23208366
7	0xbe61f99d	-0.22067876
8	0xbd15c2ba	-0.03656266
9	0x3e4249c0	0.18973446
10	0x3d80e246	0.06293158
11	0xbe9cb039	-0.30603197
12	0xbe24129b	-0.16022722
13	0xbdcbf5a1	-0.09958959
14	0xbd9939cc	-0.07481727
15	0xbd8f78eb	-0.07005485
16	0xbf14cc6d	-0.5812443
17	0xbe43ce33	-0.19121628
18	0xbe0e86c2	-0.13918594
19	0xbec6a481	-0.38797382
20	0xbdb50989	-0.08839709
21	0xbec4f8af	-0.3847098
22	0xbdf6ae34	-0.12044945
23	0xbe8626cb	-0.26201472
24	0xbe073509	-0.13203825
25	0x3d87d90c	0.06633195
26	0x3ea6e948	0.32599854
27	0xbd5adf78	-0.053435773
28	0xbd2f9938	-0.04287073
29	0x3e4a26e3	0.19741397
30	0x3cab93d9	0.020944523
31	0xbdf47ce9	-0.11937887
32	0x3dee70f2	0.11642636
33	0xbde4c469	-0.11170275
34	0xbd64624c	-0.055757806
35	0xbe31e225	-0.17371424
36	0xbe390635	-0.18068774
37	0x3e660a59	0.22464885
38	0x3e232f42	0.15935996
39	0xbe8199c2	-0.2531262
40	0xbe0fb4dd	-0.14033838
41	0xbe725567	-0.23665391
42	0xbddc02f9	-0.107427545
43	0xbdb6ddc8	-0.0892902
44	0x3e894c22	0.26815897
45	0xbe6ef090	-0.23333955
46	0xbe86d944	-0.26337636
47	0x3dde519b	0.10855409
48	0xbe3c1e5a	-0.18370953
49	0xbeaf01fd	-0.34181204
50	0xbf069dae	-0.5258435
51	0xbd8a466a	-0.06751712
52	0xbe4fef3b	-0.20306103
53	0xbe83d6d5	-0.2574984
54	0xbdbffe5d	-0.09374688
55	0xbe56d0a9	-0.20978035
56	0xb9c7c672	-0.0003810409
57	0x3d689f77	0.056792703
58	0xbeabd15f	-0.33558175
59	0xbca137f5	-0.019680003
60	0xbdba2a02	-0.090900436
61	0x3e03713e	0.12836167
62	0xbe54cd74	-0.20781499
63	0xbc5dc566	-0.013535833
64	0x3e8bfd97	0.2734191
65	0x3e3a421f	0.18189286
66	0xbe282b61	-0.16422798
67	0x3da62427	0.08112364
68	0x3e04c0c3	0.12964158
69	0xbd5e27be	-0.05423712
70	0xbe27ffcd	-0.16406174
71	0x3bf092dc	0.0073417258
72	0xbe0a8fd9	-0.13531436
73	0xbce51659	-0.027964758
74	0xbc19bc59	-0.0093832845
75	0xbe266ff1	-0.1625364
76	0x3d34edc4	0.044172063
77	0xbce435b6	-0.027857643
78	0x3d47018d	0.048585463
79	0xbd8cdde3	-0.06878259
80	0x3e06e28b	0.13172357
81	0x3cad3b2b	0.021146378
82	0xbe27e272	-0.16394976
83	0xbd5ce931	-0.053933326
84	0xbded379f	-0.115828745
85	0xbe0e2d6d	-0.13884516
86	0xbec4790b	-0.38373598
87	0x3e925445	0.28579918
88	0xbe6be439	-0.23036279
89	0xbc06361a	-0.00819161
90	0x3e4096d4	0.18807536
91	0xbe2bf125	-0.16791208
92	0x3d9564ca	0.072946146
93	0xbc80afa9	-0.015708761
94	0x3dc16f02	0.09445001
95	0xbe47a24f	-0.1949551
96	0x3bd4ba20	0.0064919144
97	0x3e1d2993	0.1534789
98	0xbdfc00a3	-0.12304809
99	0x3c818d14	0.015814342
100	0x3da3b378	0.07993215
101	0x3e84d745	0.25945488
102	0xbdf39617	-0.11893862
103	0xbd22e7dc	-0.0397719
104	0xbd66d4ef	-0.056355413
105	0x3da27852	0.079331055
106	0xbe16d3d8	-0.1472925
107	0xbe190eac	-0.14947003
108	0xbef08f25	-0.4698421
109	0xbe93a595	-0.28837267
110	0xbe52f4f8	-0.2060126
111	0xbe40d1cc	-0.18830031
112	0xbdcdb4a4	-0.1004422
113	0x38e606f5	0.000109685505
114	0x3da0ddee	0.0785483
115	0x3e0914df	0.13386868
116	0xbe8a005c	-0.269534
117	0xbc6ca1f2	-0.014442908
118	0xbd83e93e	-0.06440972
119	0x3dc6c80a	0.09706123
120	0xba9600a9	-0.0011444289
121	0xbdb964eb	-0.09052452
122	0x3d8a55f8	0.067546785
123	0xbd973cdc	-0.07384655
124	0xbdcf6223	-0.1012614
125	0xbe7f00fa	-0.24902716
126	0xbdf214b2	-0.118203536
127	0x3c9f1a97	0.019421859
128	0xbcc0428c	-0.023469232
129	0xbe23ee2d	-0.16008826
130	0xbf0e7600	-0.55648804
131	0xbc332775	-0.0109347
132	0xbd012785	-0.03153183
133	0x3d858808	0.065200865
134	0xbe8bc294	-0.2729689
135	0x3dc1c951	0.09462226
136	0xbe285100	-0.16437149
137	0x3cdd6049	0.027023451
138	0x3d1fa7ec	0.038978502
139	0xbe12e57f	-0.14345358
140	0x3d7da335	0.061923224
141	0x3e0f73ae	0.14008972
142	0xbe44fcc0	-0.19237041
143	0xbd059d14	-0.032620504
144	0xbd3d9c40	-0.04629159
145	0xbd37a01b	-0.044830423
146	0x3d0294bd	0.03188013
147	0xbd11d8ca	-0.035607137
148	0xbe9aa10e	-0.30201
149	0x3d02669c	0.031836137
150	0xbefc37f7	-0.49261448
151	0x3a0ccd1e	0.0005371141
152	0x3c4a55e1	0.012349577
153	0x3e114b61	0.14188911
154	0x3e4f319e	0.20233771
155	0xbd3b8436	-0.045780383
156	0xbcf83e12	-0.030303035
157	0x3da2c249	0.07947213
158	0xbddbcebf	-0.10732793
159	0x3d44dfb4	0.048064902
160	0xbe6c30d7	-0.23065506
161	0xbd7f94af	-0.062397655
162	0xbde53b09	-0.11192901
163	0x3d9991ed	0.07498536
164	0x3e3ced1b	0.18449824
165	0x3e5eeda7	0.21770345
166	0x3e6d989e	0.2320275
167	0xbd32775e	-0.04357087
168	0x3d9d5234	0.076816946
169	0x3c8e74e8	0.01738973
170	0xbe879eb0	-0.26488256
171	0xbd99555e	-0.074869856
172	0xbe5d439d	-0.21607824
173	0xbe050b29	-0.12992539
174	0xbcf37e35	-0.029723266
175	0xbee9d402	-0.45669562
176	0xbe95785d	-0.29193392
177	0xbda2184c	-0.079147905
178	0xbe6942e0	-0.22779417
179	0x3ded5c2b	0.11589845
180	0xbec8bbc3	-0.3920575
181	0xbc6a7fb1	-0.014312671
182	0xbe8e83d4	-0.27834952
183	0xbf1962bf	-0.599163
184	0xbe9e6d53	-0.30942783
185	0xbe01c193	-0.12671499
186	0x3e20e7f0	0.15713477
187	0x3e373ccd	0.17894287
188	0xbe029475	-0.12751944
189	0x3e0a86d9	0.13528003
190	0xbdb24c72	-0.08705987
191	0x3da06e72	0.07833566
192	0xbb467afc	-0.0030285707
193	0xbead0058	-0.33789325
194	0x3de5606a	0.1120003
195	0xbd5e9170	-0.05433792
196	0xbe72a42c	-0.23695439
197	0xbd4d2fb5	-0.050094325
198	0x3d4352c5	0.047686357
199	0xbe35210a	-0.17688385
200	0xbe4085b2	-0.18801
201	0x3c26d784	0.010183219
202	0x3e03527c	0.12824434
203	0x3e02ce2b	0.1277396
204	0x3e013d87	0.12621127
205	0x3de696fa	0.11259265
206	0x3c563f0c	0.013076555
207	0xbdb2b9f6	-0.087268755
208	0xbd0cb98c	-0.03435664
209	0x3e499b3c	0.19688123
210	0xbdb10722	-0.086439386
211	0x3c5c2c50	0.013438299
212	0xbe80d71a	-0.2516411
213	0x3d8632c4	0.065526515
214	0xbea28674	-0.31743205
215	0x3eef4454	0.46731818
216	0x3d840700	0.06446648
217	0x3d3ecbdf	0.046581145
218	0x3dc731e5	0.097263135
219	0xbde30aa8	-0.11086017
220	0x3d8ec274	0.06970683
221	0xbe3ad58d	-0.18245526
222	0x3ece0dba	0.40244848
223	0xbdd242a0	-0.10266614
224	0x3e33358b	0.17500894
225	0xbd41bcf4	-0.04729934
226	0x3db09d13	0.086237095
227	0x3e48b4a8	0.19600165
228	0xbdb5f8d3	-0.0888535
229	0x3e0a9dea	0.13536802
230	0xbc03b081	-0.008037687
231	0xbd800a81	-0.062520035
232	0x3d439076	0.04774519
233	0x3e159cc2	0.1461058
234	0x3e3366ff	0.17519759
235	0x3dc664d3	0.096871994
236	0x3d0710d9	0.03297505
237	0x3e191462	0.14949182
238	0x3cf3a6e9	0.029742675
239	0x3e1ecb89	0.1550733
240	0x3d596e41	0.053083662
241	0xbcfcc265	-0.030854413
242	0xbdc9c267	-0.098515324
243	0xbeaae5c5	-0.33378425
244	0x3d12709c	0.035751924
245	0xbecf58e3	-0.40497503
246	0xbcaeda6a	-0.021344382
247	0x3d271cff	0.040799137
248	0xbd34ebea	-0.044170298
249	0xbcd3deff	-0.025863169
250	0xbe1abfba	-0.151122
251	0x3de51c1c	0.11187002
252	0xbdde206f	-0.1084603
253	0x3d750d81	0.05982733
254	0xbe887d9f	-0.2665834
255	0xbdc6a3a9	-0.096991844

layers.1.bias f4 [32]
0	0x3b8d4dd6	0.0043122573
1	0xbdabe211	-0.08392728
2	0xbcf748c0	-0.030186057
3	0xbc343c78	-0.011000745
4	0x3a8c29d0	0.0010693613
5	0x3d808e0b	0.062770925
6	0x3d56086b	0.05225412
7	0xbcdf75fe	-0.027277943
8	0xbc9b349e	-0.018945988
9	0xbdf60104	-0.120119125
10	0x3e9b209e	0.30298322
11	0x3d3a07a0	0.045417428
12	0x3d6c1e97	0.05764636
13	0x3d9adbf5	0.07561485
14	0x3d620ef8	0.055190057
15	0x3cb61a6f	0.022229401
16	0xbdc1d550	-0.09464514
17	0x3e3aa9c9	0.1822883
18	0x3d87aedf	0.06625151
19	0x3b928436	0.004471327
20	0xbcdf41fc	-0.027253143
21	0x3d29a424	0.041416302
22	0x3e9d5cba	0.30734807
23	0x3e06bd79	0.13158216
24	0x3d96d887	0.07365518
25	0xbe11a696	-0.14223704
26	0x3df52f03	0.119718574
27	0x3db18f34	0.08669892
28	0x3d3eacbe	0.04655146
29	0x3b0086af	0.0019611528
30	0x3d372cfc	0.044720635
31	0x3eb65ee6	0.35619277

output.weight f4 [4, 32]
0	0xbbcb1528	-0.0061975904
1	0x3df3a21b	0.118961535
2	0x3e082a57	0.13297401
3	0x3e161283	0.14655499
4	0x3e03b381	0.12861444
5	0x3e800bef	0.25009105
6	0x3e5bf4b9	0.21480073
7	0x3df88b18	0.12135905
8	0xbe961a23	-0.29316816
9	0xbdc902d0	-0.098149896
10	0x3e573741	0.21017171
11	0x3ec299da	0.38008004
12	0x3e7f83ab	0.24952571
13	0x3e4e5377	0.20149027
14	0x3e3c036c	0.1836068
15	0x3e5ae59b	0.2137665
16	0xbe21c63a	-0.15798274
17	0x3e9a7f98	0.3017547
18	0xbe5a3833	-0.21310501
19	0xbe044690	-0.12917542
20	0xbe844663	-0.2583495
21	0x3dfe65aa	0.12421735
22	0x3db2cce4	0.08730486
23	0x3e4c56ac	0.19954938
24	0x3ec3692b	0.38166174
25	0xbd55d766	-0.052207373
26	0xbdea00ba	-0.1142592
27	0xbdcfa3b8	-0.10138649
28	0x3e69229b	0.22767107
29	0xbe95aace	-0.29231876
30	0xbd7f4646	-0.062322877
31	0x3e50efe3	0.2040401
32	0xbf0123ff	-0.5044555
33	0x3e89b775	0.2689778
34	0x3e5e2942	0.21695426
35	0x3e962333	0.2932373
36	0x3e1e7ace	0.15476534
37	0x3dabd3b0	0.083899856
38	0xbcfb0d6e	-0.030646052
39	0x3e50549e	0.20344779
40	0xbcb72776	-0.022357684
41	0xbe420657	-0.18947731
42	0x3de1e9ba	0.11030908
43	0x3e4e251f	0.20131348
44	0x3e675432	0.22590712
45	0x3e26a907	0.16275416
46	0x3df37b3c	0.118887395
47	0x3e5300ce	0.20605776
48	0xbdf940b8	-0.12170547
49	0x3e1d6c0d	0.1537325
50	0x3e4bdb5b	0.19907896
51	0x3d045b62	0.032313712
52	0xbded25ef	-0.11579501
53	0x3e0b5754	0.13607532
54	0x3e45c511	0.19313456
55	0x3e7f8cb7	0.24956022
56	0x3e6289f8	0.22122943
57	0xbe1f6d60	-0.15569067
58	0xbe11cd33	-0.14238434
59	0xbe15ddbe	-0.14635369
60	0x3eb5650a	0.3542865
61	0xbdbfbae7	-0.09361821
62	0x3d0d1074	0.03443952
63	0x3e1f71a6	0.15570697
64	0xbe1d8424	-0.15382439
65	0xbdabcfef	-0.083892696
66	0x3ed7430a	0.42043334
67	0x3d060df4	0.03272815
68	0x3e4d24fd	0.20033641
69	0xbdf2a5f8	-0.11848062
70	0xbf04e9b3	-0.51919097
71	0xbe3e81ce	-0.18604204
72	0xbe6ee172	-0.23328188
73	0xbdbb7d6d	-0.091547824
74	0x3d84dcdd	0.06487439
75	0x3ebea506	0.37235278
76	0xbe1e5b7c	-0.15464586
77	0x3ea2f14e	0.31824726
78	0x3ee8dea2	0.45482355
79	0x3d9396b3	0.07206478
80	0xbd99d067	-0.07510453
81	0x3e2152f4	0.157543
82	0x3e92033d	0.28518096
83	0x3e0f4f92	0.13995197
84	0xbe2c5c8b	-0.16832177
85	0xbd1131a4	-0.03544773
86	0x3d1f444f	0.038883504
87	0x3c7d8f60	0.015476078
88	0x3ecb7abe	0.39742082
89	0xbe006622	-0.1253896
90	0xbe1cd110	-0.15314126
91	0xbed72e33	-0.42027435
92	0x3ec393eb	0.3819879
93	0x3e3883d1	0.18019034
94	0x3e26e537	0.16298376
95	0x3e8b88c9	0.27252796
96	0x3eb9092b	0.36139807
97	0x3ec4077d	0.38286963
98	0x3e878d99	0.26475218
99	0x3eec42f3	0.46144828
100	0x3ecb79a6	0.39741248
101	0xbe66b420	-0.2252965
102	0xbe8d7599	-0.27628782
103	0xbcd4147c	-0.025888674
104	0xbe5e7b9b	-0.21726839
105	0xbe3273f5	-0.17427047
106	0x3e5bb6c3	0.21456437
107	0x3df0d7f7	0.11759942
108	0x3f28b245	0.6589702
109	0x3daf9b63	0.085745595
110	0xbed77c08	-0.42086816
111	0x3e00deea	0.12585035
112	0x3e7336fb	0.23751442
113	0x3d4d4af9	0.050120328
114	0xbdbb352e	-0.091410026
115	0x3e147890	0.14499116
116	0xbda439ec	-0.0801886
117	0x3e7faf13	0.2496913
118	0x3e5cccee	0.2156255
119	0x3ebc8e00	0.36827087
120	0x3e7b6624	0.24550682
121	0x3ddbbef6	0.10729782
122	0x3d2d82d0	0.04236108
123	0xbe2703e0	-0.16310072
124	0xbd017421	-0.03160489
125	0x3e2af3e1	0.16694595
126	0xbdf59d77	-0.11992925
127	0x3dc01838	0.09379619

output.bias f4 [4]
0	0x3e8f39d2	0.279738
1	0x3e8697b4	0.26287615
2	0x3e8f58b7	0.27997372
3	0x3e37fffd	0.17968746
