vanila_dqn_checkpoint.pth (torch_old, 19644 bytes, 6 tensors)

layers.0.weight f4 [64, 37]
00000000: 03f8 e73c 683c 4b3e d9a9 4dbe 0640 0fbe
00000010: ab68 183d 8ebd e73d d32a edbd 7ae0 723e
00000020: a9ce e1bd 2624 cabd d38c ab3d 0194 99bd
00000030: 5454 1dbe 50ae e6bd ce1f 18bd 06e6 4a3e
00000040: d6bb e8bd c6d6 3c3d 1cfa 7ebe 6620 89be
00000050: 59d3 b7bb 0c7d 873e 72d9 6fbd 85e0 d63d
00000060: 7bcf 2c3e a0a6 543c 6c3b aa3d 8c51 85bc
00000070: 4617 7dbe c5c9 47be 1c61 afbd c981 193d
00000080: 1cc9 da3c 1da3 74bc 3898 8a3d 65ae 1dbd
00000090: 8134 9fbd 494c 683e 590d 713c 700b 093e
000000a0: cc16 053c 545a 92be 1aef af3d 7a99 5cbd
000000b0: 6772 71be 1295 a83d 1a21 543d 0b75 9f3d
000000c0: b792 52bd 70fb 5a3d e632 353e 1f89 4a3e
000000d0: fb6d 4a3e c583 c63a cf41 a03d 20d3 debd
000000e0: 0b57 f73b b831 c2bb 22e3 b2bd fbb2 78bd
000000f0: 667f eebd 291b 8bbd ae91 b63c 4c9a 62bd
00000100: 82d8 9b3d e6c5 ec3c 272d 3ebd 72c1 763e
00000110: 0568 ab3d ad03 3f3d a6b0 83be 8a3d 3abe
00000120: 4c7e 6a3c e0c4 b83d 58a6 773e dac8 34be
00000130: 4826 1e3e 7d71 e9bd c2c5 32bf f676 d9be
00000140: c685 14bc 4ad5 b93e 4ef4 2fbd 5aac 26bf
00000150: d160 4abc acbe 50bd f4b8 353e a9ce 09be
00000160: 0250 4cbe 6a69 3bbd 2b80 a53d 25a1 663e
00000170: 793b 34be 44b4 debc 59fa 45be b8ba 0fbc
00000180: 9059 0f3e 85e4 eebd 0ba3 8fbe 2231 fe3d
00000190: 1663 093d fb41 5e3e f710 20be 8112 8dbe
000001a0: ca29 dbbd f824 c5bd 558e e63c 99d7 35be
000001b0: d4bc 19bf 9d02 c13d eb3c b9bb f0a8 083e
000001c0: c9a0 b6be eb14 733e 05da 0ebe e149 d5be
000001d0: 3c66 913d 2108 38be 8a02 24be 9c40 583e
000001e0: a6f5 2bbf 5870 a73d 9b11 19bd 9b56 c3bd
000001f0: 3b72 1dbe 4384 c4be 909c 0abd 540e a0be
00000200: 9f08 c03c 90db 00be 8d02 3cbe dfb8 2d3a
00000210: c48c 1fbe 448f 213e 07a2 42bc 69ff b23d
00000220: a15d 03be 51b0 2c3d 0d49 933c 8cd3 553e
00000230: dd93 083e dcdc 4b3e 23f2 9d3d c45f 3ebe
00000240: 8c27 14be b62b 1dbf e48c 2e3e fa8d 25bd
00000250: b263 15bd eaa1 79be 917a 42be 7352 34be
00000260: a7b1 8bbe f2e9 183e 4cd5 72bc ca9a 6cbe
00000270: 8f43 4f3d 6002 f2bc 9ea7 02be 9bd4 e3bb
00000280: 3972 85bd 40ce d9bc 9642 31bc 6ee8 ad3b
00000290: 2350 84be 7b57 d2bd abe1 e4bd 3089 003d
000002a0: a80e 31be 0767 19be e755 6a3e 9a60 233d
000002b0: dfa1 9f3e cd70 1c3d ff83 83bd ec45 483d
000002c0: c6ac ed3d bc87 313e e7a7 293e be08 72be
000002d0: 1626 6ebd fbf3 753d febf e33e b3cd 993c
000002e0: eeb7 423d fcdf 82bb d1c2 e63d 0dfa 87bd
000002f0: 3069 9cbd 683b 56bd 8a03 963e 1663 9fbe
00000300: 0b39 2fbe e25f 5bbe ab40 b2bf 1d55 5cbe
00000310: 7a61 83bc ccd3 0a3d 1c55 61bd 5760 6c3d
00000320: 9135 c7bd f595 323e 7dfe d5bd 8f60 5cbd
00000330: f25d 41be 5725 96bd 017e de3c d23f 583e
00000340: 9043 113c fe46 a3bd adc1 5ebd bf69 dcbd
00000350: b74c 223e 623d e5bd 403a debb 1f8c b13d
00000360: 8370 e4bd a721 27bc 2780 f1bd ad43 52be
00000370: 57a9 edbc 9336 a23d 1eba 5a3e 0980 77bd
00000380: c9fa f3bd 3d44 793c ebd9 b6be 6f7e 90bd
00000390: b5e9 183c bc1c 423d 1d87 56bc c926 473e
000003a0: 1d99 b73d 4c05 173e 423a b43d 35e0 313e
000003b0: b23b 0b3e ee8a 54be 05d5 1b3e da64 733d
000003c0: 8a07 243d 319b fb3e 8486 b4bd 3477 d33d
000003d0: eec9 533d 5d77 303d e462 613e f956 e83d
000003e0: 1b48 09be f062 2dbe 6a91 8abe 8e3b 83be
000003f0: a55c 683e aec1 b6bd c61e f5bd 4676 febd
0.028316503 0.19847262 -0.20084323 -0.13989267 0.037209194 0.113154516 -0.11580434 0.23718444
-0.110257454 -0.09870176 0.083764695 -0.07498933 -0.153642 -0.11263716 -0.037139706 0.1981431
-0.11363952 0.04610326 -0.24900097 -0.2678253 -0.0056099114 0.2646259 -0.05855698 0.104920425
0.16876023 0.01297918 0.08312115 -0.016274236 -0.2471591 -0.19510563 -0.08563444 0.03747729
0.026707225 -0.014931467 0.06767315 -0.038496394 -0.07773686 0.2268535 0.014712655 0.1338327
0.008123111 -0.2858454 0.08590527 -0.053857304 -0.23578797 0.08231558 0.05178938 0.07785996
-0.05140945 0.053462446 0.17695197 0.1977887 0.19768517 0.0015145472 0.07825052 -0.10880113
0.007548218 -0.005926337 -0.087347284 -0.060717564 -0.11645393 -0.0679229 0.022286262 -0.05532293
0.07609655 0.02890296 -0.04642978 0.24097231 0.083694495 0.046634365 -0.2572071 -0.18187538
0.014312338 0.09021926 0.24184549 -0.17654744 0.1544429 -0.11398599 -0.69833004 -0.42473572
-0.009065097 0.3629554 -0.042957596 -0.6510674 -0.012352184 -0.05096309 0.17746335 -0.13457741
-0.19952396 -0.045754828 0.08081087 0.2252241 -0.17600812 -0.027185567 -0.19333781 -0.008772545
0.13999009 -0.116646804 -0.2805408 0.12411715 0.03354176 0.21704857 -0.15631472 -0.2755318
-0.1070133 -0.09626192 0.028144041 -0.17758025 -0.60053754 0.094243266 -0.005653014 0.13345695
-0.35669544 0.23738448 -0.13950355 -0.41657928 0.07099578 -0.17971851 -0.16016594 0.21118397
-0.67171705 0.08175725 -0.037370306 -0.09538003 -0.15375607 -0.38382158 -0.033840716 -0.31260931
0.02344161 -0.12583756 -0.18360348 0.0006626974 -0.15581042 0.15777308 -0.011879451 0.08740122
-0.12828685 0.042160336 0.01797917 0.2088148 0.13337655 0.1990847 0.077121995 -0.18591219
-0.14468211 -0.6139482 0.17045933 -0.040418603 -0.03647203 -0.24378172 -0.18992068 -0.17609577
-0.27283975 0.14932993 -0.014821362 -0.23105922 0.05060154 -0.029542148 -0.12759253 -0.006952835
-0.06515927 -0.026587605 -0.010819098 0.005307249 -0.2584239 -0.10270592 -0.11175855 0.031380832
-0.17290747 -0.14980708 0.22884332 0.03988705 0.31178185 0.038193513 -0.06421661 0.048894808
0.116052195 0.17336935 0.16567956 -0.23636147 -0.05814179 0.06004713 0.44482416 0.018774843
0.04753869 -0.003993986 0.11267627 -0.0663949 -0.076372504 -0.052302748 0.29299575 -0.31130284
-0.17111604 -0.21423295 -1.3925985 -0.21516843 -0.016037691 0.03389339 -0.055012807 0.057709064
-0.09727014 0.17440017 -0.104489304 -0.053803023 -0.18883494 -0.07331341 0.027159693 0.21118096
0.008866206 -0.07972525 -0.054383922 -0.10762357 0.15849577 -0.111933485 -0.0067818463 0.08669304
-0.111542724 -0.010200894 -0.11792021 -0.20533629 -0.029011412 0.079205655 0.2136006 -0.06042484
-0.11913068 0.015214023 -0.35713133 -0.07055365 0.009333064 0.047390684 -0.013093737 0.19448389
0.08964751 0.14748114 0.08800174 0.17370684 0.1359699 -0.20756122 0.15217979 0.05942235
0.040046252 0.4914184 -0.08814719 0.103254706 0.051706247 0.043082584 0.2201038 0.11344714
-0.13406412 -0.16932273 -0.27064067 -0.25631374 0.22691591 -0.0892366 -0.1196876 -0.124249026

layers.0.bias f4 [64]
00000000: 7ec3 d93d 51a5 0c3d 4a06 4dbd e9a7 c1bc
00000010: 37b7 fa3d 3b07 b8bc 7001 35bd 1797 ed3c
00000020: 620f 9b3d 1525 58be bcf7 e23d ce50 e63d
00000030: 83e0 313e 69ed 153e a1b2 52bd 69d2 d4bd
00000040: dbf2 1b3c b9b7 73bc 1330 34bd c3de 21be
00000050: 453d 93bd 598f e93d fc60 063c 86bf 59bd
00000060: f5e7 5cbe a3e4 853e 3b31 c53c 33e4 f2bc
00000070: 67cf 133e 9b37 cf3d 8973 e1bd 1c38 01be
00000080: 6774 223e 6d02 10bd e682 17be 2346 d53d
00000090: 9514 0bbd eb22 4b3d 369b b3bc 346d 2ebe
000000a0: 9123 84bd d5d3 bb3c e2bf 3dbe 6f5f 793e
000000b0: d429 3ebc 9ecd b8bc 450e 2e3d 39f2 27be
000000c0: 4464 eebd 849c 8d3d 58c3 23be 2702 2b3d
000000d0: 8cbe f43c 941b 0a3e 6e67 11be 2210 d2bc
000000e0: 21c7 a83d 9ac1 b9bb ee62 0dbe bbcb fcbd
000000f0: 94b4 b3bc fd39 b2bb 050a 093a 487a 8c3d
0.1063299 0.034337346 -0.050054826 -0.023639636 0.12241977 -0.022464385 -0.044190824 0.02900271
0.075712934 -0.21107896 0.11082408 0.11245881 0.173708 0.14641346 -0.051439885 -0.10391695
0.0095183505 -0.014875346 -0.04399116 -0.15807633 -0.071894206 0.114042945 0.008201834 -0.053161167
-0.2157286 0.26150998 0.024071326 -0.02964983 0.14434586 0.10118028 -0.11008365 -0.1261906
0.15864716 -0.035158563 -0.14796028 0.10413768 -0.033955175 0.049593847 -0.021924596 -0.17033845
-0.06452096 0.022928158 -0.18530229 0.24352811 -0.011606652 -0.022558983 0.042494077 -0.16400994
-0.11640218 0.069146186 -0.15992486 0.0417501 0.029876016 0.13487083 -0.14199612 -0.025642458
0.08241106 -0.005668831 -0.1380727 -0.12343546 -0.021936692 -0.0054390416 0.0005227628 0.06859261

layers.1.weight f4 [32, 64]
00000000: 5bbd e53d dd49 713e e92e aa3d 2a79 ca3d
00000010: 1cbb 8a3e 5d34 d13d bfb7 663e 0682 d5be
00000020: a7d7 e93d 5738 d43d 5e35 75bc a2ce 86be
00000030: 1864 5ebd ac05 1abe 9c22 30be 6e62 0dbe
00000040: e681 00bf 834e 40bd 2df7 aabe 08ee 67be
00000050: 7ad4 c53b f1b5 34be 0fe0 133c aab0 90be
00000060: 6336 79be c4ed 3dbb c8f4 a43e 2387 99be
00000070: 50fd d43d fa0a 893e 51b0 f83c 51f2 54be
00000080: 0990 1ebd 2ce6 b0b9 cb29 5ebe 8ca4 20bd
00000090: 626e eebd 54b8 473e 32fa 453d 8102 68be
000000a0: ca59 49be 0079 8dbe df09 3cbe ee8d 04be
000000b0: 89d6 8a3e 9f53 92be f4c8 5bbe 8e59 6f3d
000000c0: 8ec6 29be 4d73 83be ec6c 93be 559e 0bbd
000000d0: 1621 80be 7fee 2abe e679 28bd 32f5 1abe
000000e0: 4619 f4bb 2228 043d d7ab 7abe 18ed 2bbe
000000f0: 0de7 f5bd b54b 7f3e d305 83be fc6b 483d
00000100: 6df3 4a3d 0cd1 ad3d bd0c 21be 4a8f 1fbb
00000110: 3620 d4bc 508a 99bc ff77 21be 3aa0 8d3d
00000120: cca4 98bd f45c cfbd 3b8e b3bb 397f 753d
00000130: 2c6d e13c b425 943d face f4bd e3f9 983d
00000140: 669d 483d 8349 34bd e280 f3bd f6b8 aabc
00000150: b4c7 13bd a65e 1fbe e763 11bd 4414 7ebe
00000160: 3a4b 37bd 16a5 553e 543f 11bd 8cdd 0c3d
00000170: f480 e73d 1611 c7bd 64c3 793d f3d3 b9bc
00000180: d88f babc 8653 9d3c 3085 233d d99b a73c
00000190: c438 c93d 93db 103e b117 4a3e 9be0 25be
000001a0: 9eb7 ff3d 6d40 5dbd 9604 b9bd fb12 9ebd
000001b0: 7a73 5cbd bcef 3ebe e06e d5bd 12d1 35be
000001c0: 3f2d 56be 9147 19be db35 893c 26bc 633d
000001d0: 139a 5ebe 51c0 a93d eeb8 2a3d 0a47 15ba
000001e0: acdb 1bbd 4636 49be 7033 b93c ef23 52bb
000001f0: 7368 45bd 3cbe babd db1c a13c cecc a7bd
00000200: 00ab 8dbd 21d4 2dbe 70b7 3abe 2b26 f5bc
00000210: c196 64be 515d e4bc 631a dfbd cfae 8bbb
00000220: 4718 40bd df8b 7f3d 9b2d 473d 875e 113e
00000230: f611 1b3e c67a 203e 421d 05be e1b9 bfbd
00000240: 3181 abbd ffff babd dd8a f83c e18b 01bd
00000250: 0d98 73be 9b97 713d d4a4 c6be 8890 aa3d
00000260: 5db5 21be 9705 4f3e a54e 1a3e 5031 a43c
00000270: 5286 9dbd 6493 a83d eef7 603c 9463 173d
00000280: 0f3c 0e3d 08c8 1b3b b8d6 efbd 103d 2e3e
00000290: e4cf 283e 0f8e 883e 9643 b13e 16b9 ef3d
000002a0: e7b3 333e 1bdd 2f3e fdd7 1c3d 378b 92bd
000002b0: e75e 3cbd 51e3 aa3c e083 04bd 247e babe
000002c0: 3b89 1bbe e500 c1bd 9c75 ebbd 76bc 24bc
000002d0: 7d8f 06bf 5d41 90bd 5243 c8be 50e1 39be
000002e0: e524 03be ea30 1dbe b26f 803d 6988 83bd
000002f0: 636d 14bc 32ff 003e 0ff6 a93c 3c99 233e
00000300: 1e71 adbd 6d67 99be ce3c 4f3e 9d1a 19be
00000310: 8ee5 b9be 999d f4bd b910 c7bd 2b57 44be
00000320: 65a3 61be a60f 50bd bf9c 163d 4c00 2e3e
00000330: 9623 02be bab9 133e c7b8 d7bd 0c0e 19bd
00000340: 5a78 1dbd 99dd 3fbe f89b 8a3d 1b42 debc
00000350: 2e4d 3abe d974 763d 50e1 60be d123 033e
00000360: 6a7f 043e 6ec6 913d 6bcd e53d cdd8 c0bc
00000370: b7dd be3d af9d 6cbe c2e6 b33e 8aef 983c
00000380: 8e89 80bd 7108 24be df09 413e 402d 343e
00000390: 64b1 27be 5576 7d3d f7a6 013e 705b 4fbd
000003a0: 8f56 613e fffb da3d 9b33 8e3e fa5a 173d
000003b0: 593c 82bd fd27 173e aa00 52be cd46 2a3d
000003c0: d044 4e3c 9ea3 edbd f2ed 3ebd 41db 3abe
000003d0: d47c cfbb 01a3 4abe df97 0dbd c293 2f3d
000003e0: e192 35be 844f 90bd 6314 acbe 6ed5 bf3d
000003f0: 23fe 48bd cbda dc3d 15a2 a0be f0b7 17be
0.11217757 0.23563333 0.08309729 0.098863915 0.27095878 0.10215066 0.22531031 -0.41700763
0.114180855 0.103623085 -0.014966337 -0.26329523 -0.054294676 -0.15041226 -0.17200702 -0.13807079
-0.5019821 -0.046949875 -0.33391705 -0.22649395 0.006037292 -0.1764753 0.009025588 -0.28259784
-0.24337153 -0.002898083 0.32218003 -0.29985914 0.10399878 0.26766187 0.030357512 -0.20795561
-0.03871158 -0.00033740827 -0.2169563 -0.039219424 -0.116421476 0.1950391 0.048334308 -0.22657205
-0.19663158 -0.27631378 -0.1836314 -0.12944767 0.27116802 -0.28579423 -0.21463376 0.058435015
-0.16579649 -0.25673905 -0.28794038 -0.034086544 -0.25025243 -0.16692542 -0.041131876 -0.15132597
-0.007449302 0.032264836 -0.24479614 -0.16789663 -0.1200696 0.24931224 -0.2559038 0.048931107
0.049548555 0.08487138 -0.15727516 -0.0024346882 -0.025894266 -0.01874271 -0.15768431 0.069153264
-0.074533075 -0.10125151 -0.0054796017 0.059935782 0.027517878 0.07233754 -0.1195354 0.07469537
0.04897823 -0.04401542 -0.11889817 -0.02084015 -0.036079124 -0.1556345 -0.035495665 -0.24812418
-0.044749476 0.20863757 -0.035460785 0.03439097 0.11303893 -0.09720056 0.060977355 -0.022684073
-0.022773668 0.019204866 0.03992194 0.020460056 0.0982528 0.14146261 0.197356 -0.16198961
0.12486194 -0.05401652 -0.09034078 -0.07718464 -0.053821065 -0.18646139 -0.10421538 -0.17755535
-0.20915698 -0.14968707 0.016749313 0.055599354 -0.21738462 0.082886346 0.04168027 -0.00056944846
-0.038051292 -0.1964961 0.022607535 -0.0032064875 -0.048195314 -0.091183156 0.01966708 -0.0819336
-0.06917381 -0.16975452 -0.18234038 -0.029925426 -0.22323133 -0.027876528 -0.10893705 -0.004262782
-0.046898153 0.06238925 0.048627477 0.14196216 0.1514357 0.15671834 -0.12999442 -0.093616255
-0.08374251 -0.09130859 0.030339653 -0.03162754 -0.23788472 0.058982473 -0.3879763 0.083283484
-0.15791841 0.20216976 0.15069063 0.020043045 -0.07691635 0.082312375 0.013730986 0.0369602
0.034725245 0.002377035 -0.11710876 0.17015481 0.16485554 0.26670882 0.34621876 0.11705224
0.17549096 0.17174189 0.03829192 -0.071554594 -0.045988943 0.020860346 -0.03235233 -0.36424363
-0.15189068 -0.09423999 -0.114970416 -0.010054698 -0.52562696 -0.07043717 -0.3911386 -0.18152356
-0.12807043 -0.1535069 0.06271304 -0.064225025 -0.009059283 0.1259735 0.020747213 0.15976423
-0.08468841 -0.2996172 0.20238039 -0.14951558 -0.3630795 -0.11944122 -0.097199865 -0.19173877
-0.22034986 -0.050796174 0.03677058 0.16992301 -0.12708887 0.14426318 -0.1053329 -0.03736691
-0.038444854 -0.18736877 0.0676803 -0.02713113 -0.18193504 0.06017003 -0.2196095 0.12806632
0.1293923 0.071179256 0.11220821 -0.023540879 0.093196325 -0.23107027 0.35136992 0.018668909
-0.062762365 -0.16018845 0.18851422 0.17595387 -0.16376263 0.06188043 0.12661348 -0.05062431
0.22005676 0.10692596 0.27773747 0.036951996 -0.06359167 0.14761348 -0.20508066 0.041571427
0.012589648 -0.11603473 -0.04661364 -0.18247701 -0.0063320193 -0.19788744 -0.034568664 0.042865522
-0.17731811 -0.070464164 -0.33609304 0.0936688 -0.04907049 0.10783919 -0.3137366 -0.1481626

layers.1.bias f4 [32]
00000000: fce6 243d 1da3 08be 5e35 81bb 2b24 83bd
00000010: 988f d4ba e323 193d 2abf 763d 1cd5 09bd
00000020: fbd8 7a3c 93d2 e9bd 4403 7d3e 9567 a53b
00000030: 3f3c 853d fb2e ff3c a8c0 6e3c 750d 283d
00000040: 70fd 9cbd 9314 0e3e ed88 643d 1a3b f2bc
00000050: c2a6 5abc b703 1c3c faa2 813e 5e35 ed3d
00000060: a834 d63d 96a6 11be 6797 ba3d 0aae ad3d
00000070: 57fa 303d 7491 22bb d773 403d 5af4 9c3e
0.040259346 -0.13343473 -0.0039431294 -0.06403383 -0.0016217111 0.03738774 0.060240902 -0.033650503
0.015310521 -0.11417117 0.24708277 0.0050477483 0.06505632 0.031150332 0.0145723 0.04102846
-0.07665527 0.13875036 0.055794645 -0.029569197 -0.013345422 0.00952237 0.25319654 0.115824446
0.10459262 -0.14223704 0.09110909 0.08480461 0.043207493 -0.0024805935 0.046985473 0.30655175

output.weight f4 [4, 32]
00000000: baef a23d b122 dabc 3d3e 933e df59 913c
00000010: b02f 2c3e b17a 2c3e cd92 f43d 13ea 173e
00000020: 38bc 6abe 98e5 02be 3580 5b3e 542f 403e
00000030: a56f 3d3e b0e5 163e 4df0 e93d e7a2 403e
00000040: 662b 9fbe 551e 9f3e 9f19 69be 0746 e7bd
00000050: 76de 8dbe c1cf 473e ad1b 713d f81c 3a3e
00000060: d51e e33e 65d7 55bd 27a7 d3bd 0e39 e3bd
00000070: 84aa 4e3e c706 78be 94ca d6bd 24d3 3b3e
00000080: 2fbf c9be bf12 c5bc bbc1 063e 5deb 263e
00000090: c5b5 433e 9b8c ac3d 2d8e 043d 21b6 333e
000000a0: f5da a7bb f049 05be 6af5 b83d 501a 463d
000000b0: 8801 013e b3d5 b63d 6411 39be ea0f 823e
000000c0: 6d5a 28be c99c 263e 6a5f b33d 8aed a53a
000000d0: 3eb7 c2bd a473 c43d 0dde 283e 0982 843e
000000e0: 440c 793e 606d 1fbe 65a4 0cbe 306b 1abe
000000f0: 2753 b03e b5e8 9dbd 3fd4 ef3d 76c9 073e
00000100: 1b00 edbd 2cd2 79be d182 983e 41eb 083d
00000110: aee9 2e3e ade6 f1bd 1207 d8be 4a8c 4ebe
00000120: 185a 64be 71c0 89bd 8c9b 2b3d e109 493e
00000130: 4b4a 88be 2ad8 ac3e af78 b03e 0b7d 003e
00000140: 3eb1 4cbe 7752 403e 659d 3f3d 5574 693d
00000150: 12a5 25be bd0a 32bd 34cb c13c 0cad 5abd
00000160: 9fcc a33e 2266 00be 789a 16be 58af 94be
00000170: be8e e03e b47e 723e 3e23 bd3d 06b1 873e
00000180: afe3 e93e c5c7 063e a337 083e 5d38 143f
00000190: 43c8 d13e e112 99be af3a a8be fd36 3bbd
000001a0: 2635 29be 6e1d 67be 95af 273e ca61 8bbd
000001b0: d1c8 193f 4afa de3d 75e7 b1be b238 1f3e
000001c0: 4930 9a3d fdf3 013d c075 9fbd 2f9c 0f3e
000001d0: 50d9 7abe cc85 633e e772 493e 1ce0 ac3e
000001e0: 215a 873e f6be db3d 3c53 533d 8675 d5be
000001f0: 40e8 89bd dc6e 3e3e 6f5c b5bc a5ac cb3d
0.079558805 -0.02662787 0.28758422 0.01774305 0.16815066 0.16843678 0.119420625 0.14835386
-0.22923362 -0.12782896 0.21435626 0.18768054 0.1849962 0.14736056 0.11422787 0.18812142
-0.31087798 0.3107783 -0.2276368 -0.112926535 -0.27708787 0.19512846 0.058864284 0.18175113
0.4435946 -0.05220737 -0.10334616 -0.11094867 0.20182234 -0.24221335 -0.104878575 0.18342263
-0.39403674 -0.02405679 0.1315984 0.16300721 0.19112308 0.08425256 0.032362152 0.17549945
-0.0051225373 -0.13016486 0.09031184 0.048364937 0.1259824 0.08927479 -0.1807304 0.25402766
-0.16440745 0.16270746 0.08758433 0.0012659293 -0.09507607 0.09592369 0.16490956 0.2588046
0.24321085 -0.15569067 -0.13734587 -0.15079951 0.3443844 -0.07710401 0.117104046 0.13260445
-0.11572286 -0.2439658 0.29787305 0.03342748 0.17081329 -0.11811576 -0.42192894 -0.20170704
-0.22299993 -0.067261584 0.041896388 0.19632675 -0.2661918 0.3375867 0.34467074 0.125477
-0.19989488 0.18781458 0.046780962 0.05699571 -0.1617625 -0.043467272 0.023656465 -0.053387687
0.3199205 -0.1253896 -0.14707363 -0.29040027 0.43858904 0.23681146 0.092352375 0.26502246
0.4568152 0.13162144 0.13302474 0.57898504 0.409731 -0.29897216 -0.32857272 -0.045706738
-0.16524181 -0.2256982 0.16375573 -0.06805761 0.60072047 0.108875826 -0.347469 0.15548971
0.07528741 0.031726826 -0.07786131 0.14024423 -0.2449696 0.22219008 0.19672738 0.33764732
0.2643595 0.10729782 0.05159305 -0.41691226 -0.06733751 0.18596977 -0.022138802 0.09945039

output.bias f4 [4]
00000000: 0e52 7c3e d825 633e ebc9 793e 66d7 1d3e
0.24640676 0.22182405 0.24393432 0.15414199
